src/perception/scripts/Perception_Functions/saved_model.pth (torch_old, 856373 bytes, 11 tensors)

hidden.weight f4 [128, 1632]
000000 65 b8 02 bc 67 0e ec bb 8e 1e 8e bc 4e eb 81 3c
       -0.007978533 -0.0072038653 -0.017348554 0.015859272
000010 12 23 6e bc 21 1e f4 3b a9 89 83 bc 61 a1 0c b9
       -0.014534729 0.0074498807 -0.016056852 -0.00013411559
000020 6e 6b 13 3c b8 ec b0 bc c5 11 c3 bc 5d 3a 50 bc
       0.008997781 -0.021597251 -0.023812184 -0.012709227
000030 f8 12 77 3c db 40 4e 3c 77 71 94 bb 19 77 6c bc
       0.015080206 0.012588705 -0.0045301276 -0.014432692
000040 36 39 9c bc 78 61 db bc 79 bb c5 bc 80 a1 07 3b
       -0.019070249 -0.026779875 -0.024137245 0.0020695627
000050 d2 e5 a2 bc 17 22 71 bc c9 1a 70 bc a0 59 7d 3b
       -0.019884977 -0.0147176 -0.014654824 0.0038658157
000060 24 e8 09 bc bd 41 f8 bc ed 58 72 bc dc 9e ce bc
       -0.008417163 -0.030304784 -0.014791709 -0.025222234
000070 a6 20 64 3b 93 d3 52 3c 70 6f 5c 3c e6 9d a1 bc
       0.00348095 0.012867826 0.013454303 -0.019728612
000080 a7 c5 5f bc 7e e8 7d 3c 99 cd c1 3c 00 ac 6c b8
       -0.013657964 0.015497325 0.023657607 -5.6426972e-05
000090 cc 25 97 3c aa 5b 5c 3c 1b dd b7 bc a6 a5 b8 bc
       0.01845064 0.013449589 -0.022444298 -0.022539925
0000a0 1c 5c 17 3c 47 90 52 bb bc 97 9f 3b 50 01 c8 37
       0.009238269 -0.0032129453 0.004870383 2.384247e-05
0000b0 20 a7 d1 ba 73 5c 84 3c a8 eb 4e 3b f4 ab 87 3b
       -0.0015995242 0.016157364 0.0031573568 0.0041403715
0000c0 53 bb ce bb 9a 63 62 3c 38 0d fa bb 4e 47 15 bc
       -0.006308952 0.013817692 -0.0076309703 -0.009111239
0000d0 d4 c8 d6 3b 35 e6 38 bc e0 d8 8a bc 41 0b 85 3c
       0.0065547023 -0.011285354 -0.016949117 0.016240718
0000e0 39 bb bb bc 60 0e b5 3a 08 cd 94 bc 0a 29 57 3c
       -0.022916423 0.0013813488 -0.018164173 0.013132343
0000f0 e5 e9 9f 3c a2 67 b8 bc d0 61 f1 bb 28 e2 2b bc
       0.01952071 -0.022510353 -0.0073663965 -0.010490932
000100 51 f5 ab 3b fe 2d 44 ba 3b 64 db 3b c3 ed b6 bc
       0.00524775 -0.000748366 0.006695298 -0.02233017
000110 30 60 a4 bc fc be c0 bb c0 53 a8 bc 1d de 93 3c
       -0.020065397 -0.005882142 -0.020547748 0.018050248
000120 f4 1b 88 3b fb 30 66 3b 72 c5 fd bb 64 51 00 3c
       0.004153723 0.003512441 -0.0077444846 0.007831905
000130 97 05 ad bb 63 31 df bc db a1 6a bc 20 d6 e3 bc
       -0.0052802074 -0.02724523 -0.014320816 -0.027812064
000140 52 7b 15 bc 76 f3 e4 bb 8d 4d f5 bc 3e 4e 08 3c
       -0.00912364 -0.0069870306 -0.029944206 0.008319436
000150 74 b8 1a 3c cb 21 26 bc 1b 04 82 bc a4 0d 19 3c
       0.009443391 -0.010139893 -0.015871098 0.009341631
000160 da 10 39 3c fd 88 8a bc 1d b2 c7 bc 2b 20 af 3c
       0.011295522 -0.016911024 -0.024376923 0.021377644
000170 5e da ac bc eb 80 be bc 48 f3 f9 bc 6d f9 6d bc
       -0.02110022 -0.023254832 -0.030511513 -0.0145248
000180 53 b4 d9 bc 7f 88 f4 3b 8a fb a7 bc c3 d3 cb 3b
       -0.026575243 0.0074625607 -0.020505685 0.0062203123
000190 c8 f2 b9 bc ff 6d 72 bc e0 d2 7b 3b a2 9f 4d 3c
       -0.022698775 -0.014796733 0.0038425252 0.012550266
0001a0 2e 8a c2 bc 01 3d 63 3c c5 50 43 3b ec 68 87 3b
       -0.02374753 0.013869525 0.002980278 0.0041323807
0001b0 23 f7 50 3c 9e 9b 47 3c 4c 6c 4d bc 63 6d bb 3b
       0.0127542345 0.012183098 -0.012538027 0.005719827
0001c0 7e 48 88 bc 36 02 c5 bc 2b cf 2f 3c b3 6c 53 3c
       -0.01663613 -0.024048906 0.010730545 0.012904334
0001d0 18 f6 01 3b 62 82 e7 bc d8 94 3b bc 42 d3 81 bc
       0.0019830521 -0.028260414 -0.011449061 -0.015847806
0001e0 81 fe 1f 3b 98 58 2d 3c e0 49 40 3b fa a6 ec bc
       0.002441317 0.010580204 0.0029340908 -0.028888214
0001f0 28 be b4 bc 17 49 ef bc c3 7d 04 3c 7c 1a 1e bc
       -0.02206333 -0.029209657 0.008086625 -0.009649869
000200 be 93 9b ba 4f 8d 82 3c 5b ba b8 bc f6 a6 6e 3c
       -0.0011869592 0.015936522 -0.022549799 0.014566174
000210 1a b4 98 3a fb 0b 28 3c d1 65 c6 ba 47 a4 8f bb
       0.0011650354 0.010256763 -0.0015136545 -0.004383597
000220 75 d7 65 bc 05 cb f1 bc a2 19 83 bb 76 98 0c 3c
       -0.01402842 -0.029515753 -0.0040008584 0.008581271
000230 b5 90 81 3c 40 66 f4 bc da dd 97 bc da b9 1b 3c
       0.015816072 -0.029833913 -0.018538404 0.00950476
000240 6a cf 8d bc 7e d9 29 3c 60 f7 11 3b 6e 9d 12 bc
       -0.017310817 0.010366796 0.002227269 -0.008948667
000250 4a cf 42 3c 21 47 11 ba 2c 95 41 3c f4 ab dd bb
       0.011890242 -0.000554191 0.0118153505 -0.006764883
000260 c2 11 c4 3a 29 f0 77 ba 41 62 83 bc 35 f5 93 bc
       0.0014958906 -0.0009458089 -0.016038062 -0.01806126
000270 35 94 7f bc 23 10 a3 bc a3 a5 cf 3a 3b e1 97 bc
       -0.0155993 -0.019905156 0.001584221 -0.018540015
000280 53 60 fa b9 0f ab 3f 3c 24 c4 90 bb a7 6b 18 bb
       -0.00047755483 0.011698498 -0.004417913 -0.0023257525
000290 75 b8 03 bc da 0e 98 bc dc 0e e8 3b 91 52 24 bc
       -0.008039583 -0.01856177 0.0070818495 -0.010029451
0002a0 b6 e6 2e 3c c6 36 15 bc a0 69 55 3a 99 32 b6 3c
       0.010675123 -0.009107297 0.00081410445 0.022240924
0002b0 d7 94 83 3c b8 aa 8d 3c 83 f6 33 3c 00 bb 9b 38
       0.016062183 0.01729332 0.010984066 7.4258074e-05
0002c0 11 5d 12 3a 43 fb 0c 3b 38 18 08 bb 60 0f 25 3a
       0.0005583326 0.0021512068 -0.0020766389 0.00062965415
0002d0 52 37 c5 bb ac 8d ab bb 00 0a 5f 3b 61 b7 8d 3c
       -0.0060185576 -0.0052353945 0.003403306 0.017299356
0002e0 43 0a b0 3c cd fb a8 3c 9a 96 6f 3c d0 b0 a3 ba
       0.021489268 0.02062788 0.014623309 -0.0012488607
0002f0 a0 ec bf 3a ad e8 33 bc 18 ed bb bc f4 ea df bb
       0.0014642663 -0.010980767 -0.022940204 -0.0068334285
000300 54 7a cc bb 56 f3 5a 3c b0 8a fc 3b 44 85 65 3c
       -0.0062401686 0.01336368 0.0077069625 0.014008824
000310 81 28 c1 bc 6a 12 2f 3c 45 22 a1 3c c8 71 3c bb
       -0.023578884 0.010685543 0.019669661 -0.0028754342
000320 a6 a6 29 3c 1c d2 ce 3b 0c c8 d2 bb d0 99 33 bb
       0.0103546735 0.006311668 -0.006432539 -0.0027404912
000330 ed 64 58 bc 56 19 89 bc 5f e3 bb 3b 98 18 30 3c
       -0.013207656 -0.016735714 0.005733892 0.010748051
000340 68 13 3b bc 43 af 83 3b 9f a0 4f ba 1c 07 ee bb
       -0.011418201 0.0040186956 -0.0007920358 -0.007264031
000350 c9 90 0e 3c da 59 e2 b8 c9 30 35 bb a8 3c 06 3c
       0.008701512 -0.00010793256 -0.0027647486 0.0081931725
000360 e8 95 8c bc 8f d2 fa 38 a6 7f 7c bc e4 ed f0 bc
       -0.017161325 0.000119601485 -0.015411293 -0.02941031
000370 75 64 af 3b db 78 b5 bc fa b4 c5 bc 9b 47 78 bc
       0.0053525516 -0.022152355 -0.024134148 -0.015153791
000380 07 62 0a bc 1a 8f 78 bc 62 77 9f bb 62 3a 52 bc
       -0.008446223 -0.015170837 -0.0048665265 -0.012831302
000390 89 70 e2 bb 7d 2a 97 bc f9 8d 69 3c 4f 81 5f ba
       -0.006910388 -0.018452877 0.01425504 -0.00085260434
0003a0 03 8d 90 bc 85 8b ff bb 39 3a b8 bc 34 8b b6 bc
       -0.017645365 -0.0077986144 -0.0224887 -0.022283174
0003b0 42 87 ce bc f1 92 7a 39 d0 b4 07 bc 59 76 46 3c
       -0.02521098 0.00023896598 -0.008282855 0.012113177
0003c0 1c 32 55 b9 f4 d1 b7 3b 91 b2 b0 bc 2f ce c4 bc
       -0.0002033193 0.005609745 -0.021569522 -0.024024097
0003d0 a5 df b1 3b d9 f2 7f 3c 86 db 8a bc 11 99 cc b9
       0.005428272 0.015621864 -0.01695038 -0.00039023955
0003e0 c7 9b 62 bc ec b7 c9 bc e2 8a ee bb 93 7d c5 bc
       -0.0138310855 -0.024623834 -0.0072797397 -0.02410773
0003f0 e4 47 99 bb 6f c2 62 3b 27 a7 7b 3c 8d c8 86 bc
       -0.0046777595 0.0034600755 0.015359676 -0.016453052

hidden.bias f4 [128]
000000 20 ab b6 bc f4 1e 76 3c 00 d8 cd bc 94 19 5e 3c
       -0.022298396 0.015022028 -0.02512741 0.013555903
000010 81 62 a7 3b 1d da 96 3c 86 1e af 3c 2e cd 06 bd
       0.005108178 0.018414551 0.02137686 -0.03291052
000020 45 52 f2 bc 18 3e dd bc 77 d4 40 bd e6 bf 38 bc
       -0.029580245 -0.027007148 -0.047077622 -0.011276221
000030 e3 ee 6a 3c 64 d7 0f 3c 25 0a 84 3c ab 8a 45 bc
       0.014339182 0.0087793805 0.016118119 -0.012056987
000040 65 58 0f bc d8 34 01 bd 6a 88 f5 bc 8d 63 1e 3c
       -0.008749102 -0.031544536 -0.029972274 0.009667289
000050 ec 16 b9 3c 24 3a 01 3d 71 bd a9 bc 41 3d ea bc
       0.022593938 0.031549588 -0.020720216 -0.028593661
000060 71 c9 d5 3b 0f 4a 04 bb 19 d2 63 bc a5 e3 66 3c
       0.006524258 -0.0020185744 -0.013905072 0.014092361
000070 d5 ec fb bb ad dd 29 bc 3c 64 21 bc b6 fa a7 3b
       -0.0076881447 -0.010367793 -0.009850558 0.0051263226
000080 6f e1 61 ba 24 d5 8b 3b a2 ed 87 bc a8 4b 00 3b
       -0.0008616661 0.0042673517 -0.016592804 0.0019576345
000090 ce 0f 86 bb 98 1d 0d 3a 47 ab 73 bc 8c ff 99 bb
       -0.0040912395 0.0005383133 -0.014872379 -0.004699653
0000a0 3a f2 33 3a ee 64 b7 bb c8 7d 32 3b 2d 66 86 bc
       0.00068644027 -0.0055967486 0.0027235616 -0.016406143
0000b0 1b 04 37 3c d5 d3 ae bc 90 98 29 3c 8a f0 e5 3b
       0.011170412 -0.021341244 0.010351315 0.0070172
0000c0 a3 6d 0f 3c f5 e0 36 bb cc 2c 38 bc 25 e8 ef bc
       0.008754167 -0.002790508 -0.011241149 -0.0292855
0000d0 58 db 7c 3c 14 c6 e3 3b 58 cb ee bb 11 c1 5f 3b
       0.015433155 0.006951103 -0.007287424 0.0034142176
0000e0 32 50 8e bb a4 d4 79 bc 2e 04 02 bc 7f 33 bd 3b
       -0.004343056 -0.015248451 -0.007935567 0.005773961
0000f0 6f 4b 1d 3c 01 47 00 3c fc 0b a7 bc 85 24 39 3c
       0.009600504 0.007829429 -0.020391457 0.011300211
000100 7e d3 de bc f2 ba 55 3c b5 33 94 3c 1b 94 a1 3c
       -0.027200457 0.0130450595 0.018091062 0.019723943
000110 ad 9a 93 bc 96 a0 5d 3b e2 e5 76 39 fc b1 af bb
       -0.018018091 0.003381764 0.00023546026 -0.0053617936
000120 32 0c df 3b 9f 94 7d bc 8d bc f1 bc 47 a9 62 3c
       0.0068068737 -0.015477329 -0.029508853 0.013834304
000130 04 c2 3b 3b 00 af 96 3b 89 32 13 3d bd e0 10 3c
       0.0028649578 0.0045984983 0.035936866 0.008842644
000140 9e f1 a5 bc 45 5c 47 3c f1 17 3c bc 8f cc 53 bc
       -0.020256814 0.012167995 -0.011480317 -0.012927189
000150 50 b0 21 3a 6f 71 96 3c e7 3f 16 3d a8 41 2e 3c
       0.0006167935 0.018364636 0.036682036 0.010635771
000160 8c 93 72 3c 64 3d ce 3b f1 3b d2 bc ee 9a 6a 3c
       0.014805686 0.0062939394 -0.025663348 0.014319165
000170 ff 36 b4 bc 9a cc 83 bc f6 fd 07 bd b7 13 96 3c
       -0.02199888 -0.016088773 -0.03320118 0.018319948
000180 6f 0a dc bc 9b 1e 6a 3b 14 ac 03 bd cf ec 4d 3c
       -0.026860444 0.0035723809 -0.03214653 0.012568667
000190 53 f1 dc bc 8b 76 6c bc ee 3d 3c bc 23 14 80 bc
       -0.026970541 -0.01443256 -0.011489375 -0.015634602
0001a0 80 3d 87 3b 7b a7 6e ba 52 a4 25 bc ed bb 6a bc
       0.0041272044 -0.0009103936 -0.010109978 -0.014327032
0001b0 de 6d 36 3c a0 f9 c2 bc 78 66 18 3c 29 c3 fd bc
       0.011134593 -0.023800671 0.009301774 -0.030976849
0001c0 5e a8 7d 3b 62 ec 29 bb f6 f8 96 3c 8a e2 ab bb
       0.003870509 -0.0025928249 0.01842926 -0.0052455114
0001d0 60 a9 76 bc 75 59 c6 b9 d9 39 b0 bc 52 69 a8 3b
       -0.015055031 -0.00037832154 -0.021511959 0.0051395083
0001e0 4c c8 56 bc 46 b4 a0 bc 94 9b f1 bb 0b 69 23 3b
       -0.013109278 -0.019617211 -0.0073732827 0.0024934437
0001f0 e8 26 45 3c f8 15 00 bd 9b 02 dd bc cd 6c b6 bc
       0.012033202 -0.03127095 -0.026978781 -0.022268677

box.weight f4 [4, 128]
000000 fe c8 16 3d 78 d7 3a bc 88 bc 4a bd 91 56 84 3d
       0.036812775 -0.011403911 -0.049496204 0.06461824
000010 08 b4 7a b9 63 37 00 bd 46 a3 ae bc 54 80 51 3d
       -0.00023908925 -0.03130282 -0.02131809 0.051147774
000020 a5 2c 0c 3d 0e 3d a8 3c 1d 88 06 3d 7b 9d 3a bd
       0.034222264 0.020536926 0.03284465 -0.04556034
000030 43 bf 91 bd 1e 19 3e 3d 91 03 b7 3d 40 25 a8 bd
       -0.071165584 0.046410672 0.08936227 -0.0821023
000040 c7 27 eb 3c 8d 0d 14 3d d1 92 41 bd b6 db 72 bd
       0.02870549 0.036145736 -0.047259156 -0.059291564
000050 6c 8f 6e 3d 84 db 4b 3d c7 b3 7b bd 75 e9 57 3d
       0.058242247 0.049769893 -0.061450746 0.052712876
000060 1d 50 68 bd e6 f6 84 bd 58 ce a2 39 48 78 73 bd
       -0.056717027 -0.06492405 0.00031052786 -0.05944088
000070 15 d2 30 3d 6d 90 8e 3d fe 60 bf 3c 41 ed 94 3d
       0.0431691 0.06961141 0.02336168 0.07271815
000080 b0 ac 72 bd 4e f4 6d 3d f9 5f fc bd bb 60 9a 3d
       -0.05924672 0.058094315 -0.12322993 0.07537981
000090 41 6b 3d bd 38 18 98 bc 79 d5 2e 3d fb 97 1a bd
       -0.046244863 -0.018566236 0.042684052 -0.037742596
0000a0 60 91 21 bb af 03 9e bd 33 10 09 3c 1c 0f 16 bd
       -0.00246533 -0.07715546 0.008365679 -0.036635503
0000b0 b9 2a 29 bd 10 a1 a0 3b 0d 34 ad bd 4f f8 a5 3d
       -0.04130051 0.0049020126 -0.084571935 0.08104002
0000c0 07 75 0e bd 73 47 b2 3d 19 ac 5f bd ff 17 93 3d
       -0.034779575 0.08705034 -0.054607484 0.07182311
0000d0 25 25 92 3d 10 38 3d bd 4d 6d 8d b9 78 52 aa bd
       0.07135991 -0.046196043 -0.0002697505 -0.08316511
0000e0 6c 3e 91 bd dc 4e 4f 3d fa e9 0f bd ce d2 11 3d
       -0.07091984 0.050612316 -0.035135247 0.03560143
0000f0 ee 0a 0a bd e8 e6 9a 3c 5c d5 d4 3c e5 a8 3e 3c
       -0.03370183 0.018908933 0.025980644 0.011636947
000100 44 2d d9 bc f3 fc 11 3e 74 00 11 3d 35 22 88 3c
       -0.026510842 0.14256649 0.035400823 0.016617874
000110 b5 a8 25 bc 5d 54 f6 bd 70 4f ab 3d 85 af 4e bd
       -0.010111024 -0.1202781 0.08364761 -0.050460357
000120 d2 2a 5d 3d 16 75 ae 3c fc 35 ac bc d9 6c 1f 3d
       0.053995915 0.021296065 -0.021021836 0.038922165
000130 e9 0a d6 3c 83 91 8a 3d b4 31 87 3b c8 f3 53 3c
       0.02612825 0.067660354 0.004125798 0.01293654
000140 9e ee 62 3d 11 b7 59 3d 3a ef aa bd ca f5 19 3d
       0.055403344 0.0531531 -0.0834641 0.03758792
000150 b7 c8 a8 3d 22 5c 0b 3d 46 89 3d ba 80 58 c1 3b
       0.08241408 0.03402341 -0.0007230233 0.0059004426
000160 c9 8e 9d bd 8a ee 96 3d a3 da a6 3d 88 68 8d 3c
       -0.0769325 0.073697165 0.081471704 0.017261758
000170 e5 01 f7 3c 21 08 84 bd ea a5 9d bb a4 a5 91 bd
       0.03015227 -0.06446863 -0.0048110383 -0.071116716
000180 c1 50 46 3c d2 cf 70 bd ca 4c 4f 3d b5 8e bf 3d
       0.012104214 -0.058791943 0.05061034 0.09353391
000190 f0 98 41 bc e5 f0 a6 bd 32 0d 2d 3d 8d c1 e9 bb
       -0.011816248 -0.08151416 0.042248912 -0.0071336688
0001a0 09 e1 46 bd 2e b7 d0 bc 2f 67 80 bd be 81 19 3d
       -0.048554454 -0.025477972 -0.06269681 0.037477247
0001b0 47 44 48 bd e8 be 17 3c b9 93 0f 3d 34 94 01 3d
       -0.04889324 0.009261824 0.03505299 0.03163548
0001c0 2c 45 96 3c 9f 6e a1 3d e2 fe a0 bd 3e a9 2e 3d
       0.01834353 0.078824274 -0.07861115 0.04264187
0001d0 40 7d d2 bc 9a fc 4b 3d 38 f6 0f bc c9 61 21 bc
       -0.02569449 0.049801446 -0.0087867305 -0.009849974
0001e0 fe 89 1b bd 4e aa 39 3d 39 41 32 bc 81 b7 7d 3b
       -0.037973396 0.04532843 -0.010879808 0.0038714113
0001f0 f2 a0 4f 3d 36 17 aa bc 48 fd 21 3d 7d d8 c2 3c
       0.0506906 -0.020763021 0.03954819 0.02378487
000200 8d 25 1f bd d6 5d 20 3d ec ed 67 3d e6 e4 89 3d
       -0.03885417 0.03915199 0.056623384 0.06733112
000210 88 35 96 bd 35 7a 10 bd 20 7b d8 3c 24 84 ff bc
       -0.07334429 -0.035272796 0.026425898 -0.03119094
000220 b1 30 b6 bd ea 93 77 3c 79 82 85 bd ec 20 d4 3c
       -0.08896006 0.015110949 -0.06519026 0.025894605
000230 44 3d 18 3d d1 6d d0 bc 9b a6 aa bc 70 8b 10 bd
       0.037167802 -0.02544299 -0.020831397 -0.035289228
000240 84 3c 0b 3c 92 0c 05 3d 35 e1 ad bd 49 82 86 bd
       0.008498315 0.03248269 -0.084902205 -0.06567819
000250 79 a7 9c 3c cd d7 e7 bc 59 dc 2a 3d 5b 09 f8 bc
       0.019122826 -0.028301144 0.041714046 -0.030277899
000260 25 8b 24 3d 06 f4 93 3d da af 93 3b af 9b fa bb
       0.04017176 0.07224278 0.004507047 -0.0076479535
000270 64 29 79 3d 4a b3 92 bd 08 ba 95 3c 2b 8d 3d bd
       0.06083049 -0.07163103 0.018277183 -0.046277206
000280 25 d6 48 3d 83 77 96 3d c3 81 61 bd b3 fd ba bc
       0.04903235 0.07347014 -0.05505539 -0.022826051
000290 7e 49 01 bd 4d fe 57 bd 6f a2 2d 3d c4 9d 27 3d
       -0.03156423 -0.052732754 0.042391237 0.04092194
0002a0 f1 08 50 bd 11 26 87 3b 3f 50 e9 bc 50 a1 20 3d
       -0.050789777 0.004124411 -0.028480647 0.03921634
0002b0 1b 4a 40 bd 55 e0 99 bd d1 d5 31 bc 60 2a 68 bd
       -0.046945672 -0.07513491 -0.0108542 -0.056681037
0002c0 47 5d 36 3d 52 9a b1 bc f4 60 14 bd 3a a9 2a 3c
       0.04452255 -0.021680031 -0.036225274 0.010416323
0002d0 78 6e 16 bd b6 16 d5 3c 8d 67 2d bd 2b 5d af 3a
       -0.036726445 0.026011806 -0.04233508 0.0013379207
0002e0 bf b2 c4 bc d7 46 f7 bc 0f 2e 13 3d 68 81 8f bd
       -0.024011014 -0.030185146 0.035932597 -0.07007104
0002f0 ba cf 53 bd 19 8e 24 bd 83 c7 22 3b 7e 4d 16 3c
       -0.051711775 -0.040174577 0.0024838157 0.009173749
000300 44 88 53 3c 7f 55 0e 3c 6e d2 69 3b fa cd 6b 3c
       0.012910906 0.008687376 0.0035678404 0.01439237
000310 ad c0 9e bd 7f 80 0a 3d 6c 76 a4 3d e5 10 a5 bd
       -0.07751594 0.03381395 0.080304 -0.08059863
000320 5c ac a4 bd ab 7a 02 bd e9 dd 36 bd 74 52 4d 3d
       -0.080406874 -0.031855267 -0.044645224 0.05012746
000330 4b ed 70 3c c0 36 a9 bb 0e ae 80 3d 14 7c b3 38
       0.014705013 -0.0051639974 0.06283198 8.5584965e-05
000340 03 d7 83 3d b0 97 34 3d c4 8b 74 3d 7b f7 9c bd
       0.064374946 0.044089973 0.059703603 -0.07664391
000350 fa b5 53 bc 6d c5 13 bd c4 b1 d6 3c a6 15 31 3d
       -0.012921805 -0.03607695 0.026207812 0.043233536
000360 73 c4 14 3d 2c cc 96 3d 35 78 b8 bb 38 50 e7 3b
       0.03632016 0.073631614 -0.005629564 0.0070591234
000370 d5 31 93 3d 6a ed 87 3c 6c bd 44 bd 6d 73 86 bd
       0.07187239 0.0165927 -0.04803221 -0.065649845
000380 12 6c a7 3c e8 45 9c 3d 4e 2e 0d bd 10 24 86 3b
       0.020437274 0.07630521 -0.034467988 0.0040936545
000390 0d 15 26 bd d8 49 2d bd 7f 7c a6 bd 50 6b b5 3c
       -0.04054742 -0.04230675 -0.081292145 0.022145897
0003a0 a4 43 a6 bd c6 00 5d 3d 0c 50 74 3d ef 56 12 3d
       -0.0811837 0.053955816 0.05964665 0.035727438
0003b0 32 14 4e 3d fd 38 46 bd 29 5e 68 3c bf a9 39 bd
       0.05031223 -0.048394192 0.014182606 -0.045327898
0003c0 1f ea 1c bb b2 55 9a bd fe 90 9c bc 9b f2 44 3a
       -0.0023943258 -0.07535876 -0.019112106 0.00075129577
0003d0 c0 b3 45 3b f8 80 91 3b b9 f6 c7 3c 1c be 06 3e
       0.0030166954 0.004440423 0.024409639 0.13158458
0003e0 b1 ad 0c 3d b0 c4 ef bc 7b 68 86 bd c9 c1 30 3c
       0.034345333 -0.029268593 -0.06562897 0.0107883895
0003f0 a7 2e d3 3c ed 5c a3 3c 5e 52 eb 3c c3 86 6b 3d
       0.025779082 0.019941771 0.0287258 0.057501566

box.bias f4 [4]
000000 ce 5c 77 bc ab a7 5b 3d ae 6e 80 bd cf ec e1 3c
       -0.01509781 0.053626698 -0.062711105 0.02757874

logit.weight f4 [1, 128]
000000 d3 b3 76 3d a4 56 48 bc e7 5b 8e bd 72 9e 1a bd
       0.060230087 -0.012227688 -0.06951123 -0.03774876
000010 97 91 83 3d f8 11 80 ba 59 7c 14 3f e0 23 d6 3b
       0.064242534 -0.000977098 0.5800224 0.0065350384
000020 ed 54 8c bd 73 52 41 3d 3e 46 63 bd 2e e8 15 bc
       -0.06852136 0.04719777 -0.05548691 -0.009149594
000030 59 a3 28 3c f0 af 22 3d a9 1e 93 be 8a 6d fb bc
       0.010292851 0.03971857 -0.2873433 -0.03069188
000040 84 08 05 bd 3d 0c c9 3d 2e e8 9c bd 2b 3b aa 3d
       -0.032478824 0.098167874 -0.07661472 0.08312067
000050 c7 c0 fe 3d 7f df 22 3f 07 bc a2 bd d1 bf 9a 3d
       0.12439113 0.6362228 -0.079460196 0.07556117
000060 ed 29 0f bd b6 4a 7d bc bd 75 70 3f d4 6a 78 bd
       -0.034952093 -0.015459707 0.93929654 -0.060648754
000070 81 6c de 3c 74 3c 7a bd 01 5d eb 3e 41 79 81 3d
       0.027151348 -0.06109281 0.45969394 0.063219555
000080 dd 86 a5 3d 92 2a d4 bc b4 a1 e8 3e ae bb a6 bd
       0.08082364 -0.025899205 0.4543587 -0.08141266
000090 20 5a 96 3d 06 98 7a 3d d3 1f 7c bd 5a 51 25 3d
       0.07341409 0.061180137 -0.061553787 0.040360786
0000a0 65 8e 8c bd b2 90 82 bd d4 90 57 3e ad 6c ee bc
       -0.06863097 -0.06375255 0.21051341 -0.029104555
0000b0 44 f1 42 3c dd 06 f3 3b 17 28 f2 bc aa 6a 9b bb
       0.0118983425 0.0074165897 -0.029560132 -0.00474294
0000c0 a1 91 24 bd a6 b0 9e bd 33 57 1c bd eb 01 0d bd
       -0.040177945 -0.07748537 -0.038169097 -0.034425657
0000d0 6f ea 8d bd 9a a0 b8 ba 96 d8 b5 3c 11 26 3c bd
       -0.0692948 -0.0014085949 0.022198003 -0.04593474
0000e0 4b 7a e3 bd 71 ac 81 3c 4a aa 6f 3d 1f 4a be be
       -0.1110731 0.015829297 0.05851201 -0.37165925
0000f0 5a f8 bb bd 44 6b 06 3d 08 ab b3 3d 46 54 34 be
       -0.09178229 0.03281714 0.08772856 -0.17610273
000100 72 98 b7 bd ac f7 4c bf ea 3e 0c bd 9f b9 c2 3c
       -0.089646235 -0.8006542 -0.034239687 0.023770152
000110 95 a5 3f bd 6a c9 54 bf 08 c5 29 bd 92 db 12 3d
       -0.04678877 -0.83119833 -0.04144767 0.03585393
000120 87 12 93 bd ab 2c 9f 3d 4d fe fd 3c 1a f4 76 3d
       -0.07181268 0.077721916 0.03100505 0.060291387
000130 91 49 23 3d ea 04 70 bd 35 45 3e bf 9c 46 ff bc
       0.03986508 -0.058598436 -0.7432435 -0.031161599
000140 af 49 1c 3c 6c cb fa 3c cc 63 6e bd 21 5b a2 bd
       0.009539052 0.030614577 -0.058200642 -0.07927538
000150 b1 d2 8a bd 54 dd bf bd 3d f2 03 bf 32 94 80 3d
       -0.067784674 -0.09368387 -0.515415 0.06278266
000160 fd 44 89 bd 56 62 15 be 7d 5e 1a bd 46 00 6b 3d
       -0.067026116 -0.14588293 -0.037687767 0.057373308
000170 c7 6c 6e bb 19 31 67 3d c0 ac 1d 3d b4 7c 15 bd
       -0.0036380754 0.056443308 0.038494825 -0.03649588
000180 f4 1a b0 3e 9a d4 07 bc 2a e9 84 bd 24 0c 25 bf
       0.34395564 -0.008290434 -0.06489785 -0.6447165
000190 94 e7 5b bd a0 da 8c bd 87 a6 85 bd 67 bb 66 3f
       -0.053687647 -0.06877637 -0.06525903 0.90129703
0001a0 ae df 8e bd c6 7f b1 3d 07 96 25 3d f3 45 35 3d
       -0.06976257 0.08666949 0.04042628 0.044256162
0001b0 5e 1d a0 bd 48 04 91 bd 37 37 1e 3f fa 92 b7 3d
       -0.07818101 -0.07080895 0.61803 0.089635804
0001c0 f9 0f 4d 3d df a5 2d bc 80 c6 5a bd 25 f3 2e bd
       0.05006406 -0.010598629 -0.05341196 -0.04271235
0001d0 63 50 1e 3b 48 03 8c 3d dc 78 d5 3b d3 7b fa be
       0.00241568 0.06836563 0.0065146517 -0.48922595
0001e0 20 39 b3 3d ce 31 78 3d ab b3 86 bd a7 d7 27 3f
       0.0875113 0.060594372 -0.06577238 0.65563434
0001f0 f2 9b 3d 3e 2f bf 56 3d 57 92 8b bd 18 20 5d 39
       0.1851652 0.05242842 -0.068150215 0.00021088158

conv1.0.weight f4 [8, 3, 5, 5]
000000 ba 85 8a 3c ed 2f 32 3c 3a 18 63 3c 19 f0 74 bb
       0.016909469 0.010875684 0.0138607565 -0.0037374555
000010 eb 00 a2 bc ab 77 a9 3d 2a f7 ad 3d f9 af c9 bd
       -0.019775828 0.08274778 0.084944084 -0.09848017
000020 43 64 f8 bc 0d 69 22 bc 00 b1 12 bd d2 e0 dd bc
       -0.030321246 -0.009912741 -0.03581333 -0.027084742
000030 f4 66 6e 3c 0b 61 07 bd 87 b9 df bd 8b 35 63 3d
       0.014550913 -0.03305153 -0.109240584 0.055470984
000040 e4 22 28 3d d8 63 88 bd 5a f8 25 3d e9 97 9e 3d
       0.0410489 -0.06659669 0.04052005 0.07743818
000050 78 75 cb bc 03 18 85 bd 79 b5 3f bb 92 d1 d6 3d
       -0.024836287 -0.064987205 -0.0029252453 0.10489191
000060 9c 1d fb bd b4 81 36 3e dc 3b e0 3c 21 bb f1 3d
       -0.12261507 0.17822915 0.027372293 0.1180327
000070 fb 6a a3 bc 36 18 5c bb 48 88 90 3d 3d 2f 31 3b
       -0.019948473 -0.0033583767 0.070572436 0.0027036213
000080 92 c9 3d bd ee ee b0 3d 43 17 89 bd 04 2c 60 bc
       -0.04633481 0.08639322 -0.0669389 -0.013682369
000090 e0 6a 7a bd 47 af 09 be 4e 42 f8 bd 07 27 b6 bd
       -0.06113708 -0.13445769 -0.121220216 -0.088941626
0000a0 cc ab 37 3d 75 b6 64 bd 51 9b 54 3d 65 a1 02 3d
       0.044841573 -0.055838067 0.051905934 0.0318922
0000b0 1d 1a 31 bc 7c 76 99 3c 51 f2 0f 3e 99 db 01 3e
       -0.010809449 0.018733256 0.1405728 0.12681426
0000c0 df d0 1b bd a5 8f 91 3d 0c 0c c1 3c 3b c0 e5 3d
       -0.038040992 0.07107476 0.023565315 0.11218306
0000d0 8f 48 cf bd df ca a1 bc a7 3d b9 3d a6 7b 74 3c
       -0.10121261 -0.019750057 0.090449624 0.014922058
0000e0 d9 f1 27 bd e2 03 8c 3b 93 93 1a be af a6 1f bd
       -0.04100213 0.004272924 -0.15095358 -0.03897732
0000f0 22 5d 03 bd c1 99 44 bd 77 d5 80 be 14 95 f0 bd
       -0.03207124 -0.047998194 -0.2516286 -0.117471844
000100 80 dc 3a 3c 1c 61 14 bc f2 67 7a bd 28 12 4b bd
       0.01140511 -0.009056356 -0.061134286 -0.049577862
000110 bf 78 20 be ca 2b 0c be d4 a8 2b 3d 7a 04 86 bc
       -0.15671061 -0.13688579 0.041909054 -0.016359556
000120 33 a3 ee 3b 14 e3 32 be 06 56 1d be f5 bb c9 bc
       0.0072826385 -0.17469436 -0.15364847 -0.024625758
000130 31 6d 9e 3d fe b5 20 3d 38 4c f9 3d d9 58 d5 3d
       0.0773567 0.03923606 0.12172741 0.10417337
000140 57 eb 53 bc 3c 5f 52 bd 66 6d 06 be cb fc 78 bd
       -0.012934527 -0.051360354 -0.1312767 -0.060787957
000150 23 cf 72 bd 7b e6 dc 3d f8 e1 a9 3d f3 b6 93 3d
       -0.059279572 0.10786148 0.08295053 0.07212629
000160 27 fd fb 3d 24 69 cd 3c c6 8b f0 3c 9c d8 34 bd
       0.12304144 0.025074549 0.029363524 -0.044151887
000170 a1 5e d0 3c 1b 51 ef bc 01 3f 10 bd b3 45 f6 bc
       0.025435748 -0.029213479 -0.035216335 -0.030062532
000180 d1 a6 b1 3d 9f dd 08 bd eb 75 4d bc 01 81 9b 3d
       0.08674396 -0.03341448 -0.012540321 0.07592965
000190 df c8 d6 bd 8d 8b 07 bd 36 c6 39 ba 5c 59 2a 3d
       -0.10487532 -0.03309207 -0.00070867257 0.041589126
0001a0 56 ef e9 3b ac 9f 22 bd 50 da 47 bc b4 25 01 be
       0.007139127 -0.039703056 -0.012198046 -0.12612039
0001b0 6c 05 18 be db ba f9 bd a1 4b f3 3b b8 c2 8e 3c
       -0.14845818 -0.12193843 0.007424787 0.017426834
0001c0 1a 6a ae 3c 03 d8 4f 3d c5 ea 3e bd 87 6c 15 be
       0.021290828 0.050743114 -0.046610612 -0.14592181
0001d0 c6 23 18 be 59 96 5c 3c 26 6a aa bc 44 3e e9 bd
       -0.14857396 0.01346358 -0.020802569 -0.11388829
0001e0 6f d3 f9 bc 60 70 04 ba 15 80 e9 bd 2f b6 01 bd
       -0.030496327 -0.00050521456 -0.11401383 -0.031667884
0001f0 03 c4 98 bc c5 50 56 3d 6e 8e dd 3d 07 59 f4 3c
       -0.018648153 0.05232312 0.10818182 0.029827608
000200 be bb 0a bd a7 b3 84 3d 64 04 6e 3c 8c 90 e8 bd
       -0.03387045 0.064795785 0.014527414 -0.11355695
000210 f5 a0 39 bd 8c 6c 50 3d ef b9 3b bc c9 0c 07 3d
       -0.045319516 0.05088477 -0.011457904 0.032971177
000220 14 c6 ab 3d 44 dc de 3c fe e9 38 bd 22 81 f9 3d
       0.0838739 0.02720464 -0.045145027 0.12182833
000230 35 bc 94 3c 70 c5 b8 3d ee 2f 91 3d f0 7d cc 3c
       0.01815615 0.09022033 0.0708922 0.024962395
000240 11 e3 7e 3d 82 f3 9f 3b 4b 9d 16 3c 8c 99 9e bc
       0.062228266 0.0048813233 0.009192775 -0.019360326
000250 86 3f 86 3d 98 e9 86 bb 4d 3a 67 bd 19 65 34 bd
       0.06555085 -0.004117202 -0.056452084 -0.044041727
000260 01 28 9a bc 20 4b cc bd 7a 9f 1c 3d dd cb 85 3d
       -0.018817903 -0.099752665 0.038238026 0.065330245
000270 be a7 1b bd 2e 27 c1 bc 06 9d 88 ba c9 4e ee bd
       -0.03800177 -0.023578253 -0.0010422773 -0.11636121
000280 ac 3f b9 bd 05 55 d9 3b db 59 ce bd fb 33 5c bd
       -0.090453476 0.0066324496 -0.10075732 -0.05376051
000290 f2 ea f5 bd 38 1d c7 bd 75 33 b2 bd b8 43 00 3c
       -0.12007703 -0.0972237 -0.08701221 0.007828645
0002a0 2f b6 db bd ed ee 3d be c6 40 83 3d 59 4b 45 3d
       -0.10728108 -0.18548174 0.06408839 0.04816756
0002b0 52 e6 d4 bc 46 6f e0 bc e4 4a 37 be 36 d7 e1 3d
       -0.025988732 -0.02739681 -0.17899662 0.11027376
0002c0 13 1a eb bb d7 0e 8c 3c 25 a1 a6 bd e4 b0 c2 bc
       -0.007174739 0.01709692 -0.08136205 -0.023765989
0002d0 be 96 78 bd 82 73 00 3e 7f 06 8c 3d 24 b5 04 bd
       -0.060690634 0.12544063 0.068371765 -0.03239931
0002e0 ff 84 89 3d 23 ac 16 bd 56 ca da 3d 0e 82 2d 3c
       0.0671482 -0.036785256 0.10683124 0.0105900895
0002f0 e5 c3 e7 3d fc 52 14 bd 7c ae 0d bd e4 ff 73 3d
       0.11316661 -0.036211953 -0.03459023 0.05957021
000300 ce bc e0 3d 39 dc 77 3d b8 22 b7 3d 60 cd d4 3d
       0.10973512 0.060512755 0.08942169 0.10390735
000310 57 16 0e 3e 8d 86 1a 3e e3 66 a3 3d 83 51 c4 3d
       0.1387571 0.1509039 0.079786085 0.095858596
000320 d9 67 01 3d 09 d9 0a 3e 67 e8 8c 3d 36 a6 a0 3d
       0.031593177 0.13559355 0.06880265 0.07844202
000330 c6 3a 9a bd ff be da 3d 00 a9 01 bd e5 1c 9b 3b
       -0.075307414 0.10680961 -0.03165531 0.004733669
000340 c2 e7 94 3d e2 c8 15 3c be 5c 53 3d 4d 8f 8a bd
       0.07270767 0.0091421325 0.051602118 -0.06765614
000350 6e 7f 50 3d e1 d1 90 bd 86 be 50 bd 9f 98 04 3d
       0.050902776 -0.07071281 -0.050962947 0.032372113
000360 6b bf dc bc 2d a2 2a bd e4 01 c5 bc 8a b8 a4 3d
       -0.026946744 -0.04165857 -0.024048753 0.080430105
000370 60 08 e1 3d cf 7c 82 3d 47 8f 17 3e 15 4b 2d bc
       0.109879255 0.063714616 0.1480075 -0.010576983
000380 7f f1 90 bd fe ee 77 3d c3 87 83 bd 57 e9 93 3d
       -0.07077312 0.060530655 -0.06422379 0.072222404
000390 90 68 73 3d 5a 80 f7 3c 08 96 83 3d cc 56 3d 3c
       0.05942589 0.03021257 0.064251006 0.0115563385
0003a0 7f 09 5e 3c 32 fc da bb 00 c2 e6 3d 76 b4 e0 3d
       0.013552069 -0.006682896 0.11267471 0.1097192
0003b0 c8 1a 91 3d b6 0b 99 bd cc 9f 75 bd f8 1e e2 bd
       0.07085186 -0.07472937 -0.059966847 -0.11041063
0003c0 90 89 dd bd 9c b6 2e bd 60 3d 08 3e c6 fd 97 3d
       -0.108172536 -0.04265462 0.13304663 0.0742145
0003d0 08 3c 08 3d f5 1e ca 3d 52 4e 9d 3d 28 68 d5 bd
       0.033260375 0.09869186 0.07680954 -0.10420257
0003e0 0f f4 39 bc 35 71 bd 3d f5 18 c9 bd be d3 e1 bd
       -0.011349692 0.09250108 -0.09819213 -0.11026715
0003f0 48 e2 42 bd 87 0e 01 be 46 6a 12 3d 20 c7 eb bc
       -0.04757908 -0.12603198 0.03574588 -0.028781474

conv1.0.bias f4 [8]
000000 95 d6 3a bd ab 9f df bd c2 16 a0 bd a4 8f d2 bd
       -0.045614798 -0.10919126 -0.07816841 -0.102813035
000010 48 07 be bd 82 30 fc bd b9 27 2f be 3d 23 ab bb
       -0.092787325 -0.1231394 -0.17104997 -0.0052227066

conv2.0.weight f4 [16, 8, 5, 5]
000000 da 14 90 bd 8a d9 23 be 20 7b 69 3c a2 29 9c bd
       -0.07035227 -0.16000953 0.014250547 -0.07625128
000010 58 4d 00 bd b7 b4 85 bd e3 ad 3f be 8e 9b 26 bd
       -0.03132376 -0.06528609 -0.18718676 -0.040675692
000020 fe 75 da bd 45 54 f8 3c bc 1f 26 3c 48 6c 8f bc
       -0.106670365 0.03031362 0.010139402 -0.017507687
000030 a3 83 73 bc 1f f5 94 3c 09 f6 25 3d 3b d2 ff bd
       -0.014862928 0.01818329 0.04051784 -0.1249127
000040 00 c6 da bd ac 39 d8 3c c0 20 d2 bb 3d 88 13 bd
       -0.10682297 0.026394688 -0.0064125955 -0.0360186
000050 63 60 e1 bd a8 08 41 bd 33 7b 70 bd f3 d7 cb bd
       -0.110047124 -0.047127396 -0.058711242 -0.099532984
000060 b3 42 8d bd 3a 9e 60 3d e6 6d ec 3b 05 a9 0c 3c
       -0.068974875 0.054838397 0.0072152494 0.008585219
000070 c3 78 c9 3c 31 7e 97 3d a2 fc be bb 92 fa 85 3c
       0.024593716 0.07397116 -0.005828456 0.016354833
000080 75 93 79 3d 58 d6 66 ba 2e b3 81 3b 85 61 a7 bd
       0.06093164 -0.00088057434 0.0039581275 -0.08172897
000090 54 a7 2c 3d aa 5c b3 3d 43 b8 b2 3d 3b 12 0c 3d
       0.042151764 0.08757909 0.087265514 0.034197073
0000a0 96 2f 67 bd 41 2c d7 3c 28 1a b2 3d 6d 6e db 3d
       -0.056441866 0.02626622 0.08696395 0.107144214
0000b0 20 71 66 bb e4 5c 26 3c af 18 c9 bb 4f 40 9b 3c
       -0.0035162643 0.010153983 -0.0061369757 0.018951563
0000c0 52 bd ed bb 44 a6 e6 3c 85 35 41 3c b5 94 48 bd
       -0.0072552348 0.028155454 0.011792545 -0.048969943
0000d0 ba 89 64 bd c8 f1 13 3d a8 a8 d4 bc 1b dd 02 bd
       -0.05579541 0.036119252 -0.025959328 -0.031949144
0000e0 f0 6e 16 3d 37 55 f1 3c 80 16 40 bd ca 41 52 bb
       0.036726892 0.029459579 -0.046896458 -0.003208267
0000f0 f3 f8 d0 3b 4f eb 34 bd 9b 2b 39 3c 72 d5 67 bd
       0.0063773333 -0.04416972 0.0113019 -0.05660004
000100 aa 9d 34 bd c1 ca 37 bc d9 7d 06 3b aa ae b4 bc
       -0.044095673 -0.011217774 0.0020521788 -0.022055943
000110 17 e6 d9 3c 1c 10 ca bc 40 ea 66 3d 7a 08 3b bd
       0.026598973 -0.024665885 0.056375742 -0.04566238
000120 50 03 11 bd 77 ab 3d 3c c3 b0 19 3d d4 44 3e bd
       -0.03540355 0.011576525 0.03752209 -0.04645236
000130 61 97 3b 3c 76 ed 94 bd e6 c8 d8 bc de 7e 8e ba
       0.011449666 -0.072718546 -0.026462983 -0.001087155
000140 8e ea 1a bd 94 26 8e bd 20 fb 99 3d df e9 03 3d
       -0.037821345 -0.06940952 0.075186014 0.03220546
000150 64 ca 9c 3d aa 51 4e 3d fd 6e cd 3c 7c 11 04 3e
       0.076557904 0.05037085 0.025077337 0.12897295
000160 43 4a 34 3d 5b fd 1a 3d 8f d5 2b 3d 23 72 f1 3d
       0.044016134 0.037839275 0.041951712 0.11789348
000170 6c 57 ce 3d 89 14 ad bc d8 48 51 3c 78 ae 8f 3d
       0.10075268 -0.021127956 0.012773715 0.07015699
000180 4f 65 01 3e 4f e6 ac 3d b5 dc cc 3d a8 81 84 bc
       0.12636302 0.084423654 0.10003034 -0.016175106
000190 40 d9 b1 bc 60 5f bc 3d c4 f7 96 3c 80 9e e6 3c
       -0.021710038 0.09197879 0.01842869 0.02815175
0001a0 ca 52 37 bc 7a 17 35 bc c4 a5 99 3d 4c fb ad 3c
       -0.011189172 -0.0110529605 0.075023204 0.021237992
0001b0 83 e5 c1 3d 0b 8b 91 bc 64 09 e1 3b b8 8c 17 3e
       0.09467604 -0.017766496 0.0068675745 0.14799774
0001c0 5f b5 6d 3d bd 03 77 3d 4e 81 ca 3b 33 6e 33 bc
       0.058034297 0.0603063 0.006179965 -0.0109515665
0001d0 f9 d3 03 3e 03 39 e0 3d 75 39 12 bb e5 bb c3 3d
       0.1287383 0.10948374 -0.002231208 0.095573224
0001e0 0a d4 08 bd 2a cb af 3c ec 4c 5d 3d da ec 38 3d
       -0.03340534 0.02145918 0.054028437 0.045147754
0001f0 06 4d 15 3d 51 fe 98 bc 15 a0 6a 3d 99 8c d0 3d
       0.03645041 -0.018675955 0.057281572 0.10183067
000200 65 f1 0a 3e 9b 26 93 3d 15 b2 23 3d 2d 15 8d 3d
       0.13568647 0.07185098 0.039964754 0.068888046
000210 6d 82 dd 3d e1 59 60 3d 8b 53 ab 3d a5 68 c9 bd
       0.10815892 0.054773215 0.08365544 -0.098344125
000220 54 3f 72 3d d0 c0 44 3d eb 68 bf 3d bf 8f c7 3d
       0.059142426 0.048035443 0.093461834 0.09744214
000230 af c7 bb bd c6 01 9f 3d f9 b1 96 3d 4b 64 1e 3e
       -0.09168946 0.0776401 0.07358164 0.15467946
000240 3b b4 b1 ba bb 03 91 ba ed 12 11 3e 82 a3 c9 3d
       -0.0013557741 -0.0011063734 0.14167376 0.0984564
000250 54 0d 19 3d 12 ea 6d 3d 42 7c 43 3d 49 4e c0 3d
       0.037366226 0.058084555 0.047725923 0.09389932
000260 05 ad d5 3d 53 17 70 3d a7 ed ae 3b 27 de 8b 3d
       0.104333915 0.058615994 0.005338389 0.068294816
000270 9a 11 53 3d a7 6e a0 3d e8 80 22 3b 33 af d5 3d
       0.051530458 0.07833605 0.0024796072 0.10433807
000280 8e 20 d0 3c 28 b8 83 3d 35 d9 a8 3d c2 e8 a1 3d
       0.025406148 0.064316094 0.08244554 0.07905723
000290 84 31 d4 3d 8c 2d 33 3d b8 61 0c 3e 64 5f ca 3d
       0.10361007 0.04374461 0.13709152 0.098814756
0002a0 03 cc 0c 3e 8b 8b 52 3d e1 7e 39 3d 55 50 54 3d
       0.137497 0.05140261 0.045287017 0.051834423
0002b0 9c ff 86 bc 03 51 ed 3d b6 92 fc 3b ca 0e e3 bd
       -0.016479306 0.115877174 0.007707919 -0.11086805
0002c0 d8 6c 1e bd 43 31 be 39 8d 19 b9 3b 88 c2 29 3c
       -0.03867802 0.00036276327 0.005648798 0.010361321
0002d0 f8 a5 77 3d 1a 76 d5 3c f6 2a 5a bd b1 b2 50 bc
       0.060461015 0.026057292 -0.053263627 -0.012737916
0002e0 f1 84 1a bc 26 56 eb 3d 73 65 ea 3d e6 fd fc 3d
       -0.00943111 0.11491041 0.11445131 0.12353115
0002f0 5b fe 16 bd 8d 50 3b bc 1c 7b f3 3d 93 91 03 3d
       -0.036863666 -0.011432779 0.118887156 0.032121252
000300 68 b2 80 3d 8b 7a 55 3c e8 21 74 bc 05 3d 01 3e
       0.06284028 0.013029705 -0.014900662 0.12620933
000310 e5 68 a5 3d 9d 77 87 3d 74 69 c6 bc 96 f2 fa 3b
       0.08076648 0.06614611 -0.024220206 0.007658313
000320 25 33 04 bc 9b 4e 15 3d 56 bb 9e bc 7c 65 bc 3d
       -0.008068834 0.036451917 -0.019376438 0.09199044
000330 01 de 10 bc ab fe 88 bd 70 21 b3 bd 88 19 0e 3c
       -0.008841992 -0.06689199 -0.08746612 0.008673079
000340 b6 fc dc bd 64 6d 45 bd 78 e8 95 bc e0 5c 75 3d
       -0.10790388 -0.048200026 -0.018299326 0.059903026
000350 f7 1b 58 3d d4 66 3c bd 3d ff 00 3d db 33 40 bd
       0.052761044 -0.045996502 0.031493414 -0.046924453
000360 a7 b0 66 bd 1d dd 22 3c a0 1c a0 3c d8 3c 09 bd
       -0.056320813 0.009940413 0.0195449 -0.03350529
000370 63 f5 d2 bd 74 ac 42 bd 1a bd e4 3a 80 f3 23 bd
       -0.1030071 -0.047527745 0.0017451376 -0.04002714
000380 51 a0 2a 3d 3e 9b 2b bd b7 c2 48 3d 60 0f 05 3c
       0.041656796 -0.041896097 0.04901382 0.0081213415
000390 50 5e 98 3c 87 43 4f bc a8 ba e6 3b 8d a0 8c bb
       0.01859966 -0.012650377 0.007041294 -0.0042916
0003a0 fe d3 80 bc d0 ee ab bd 1b 9a c3 bd 03 da 8e bc
       -0.015726086 -0.08395159 -0.09550878 -0.01743794
0003b0 85 b6 a1 bd 84 b2 89 bd 90 ab 37 bd a1 14 2a bd
       -0.07896141 -0.06723502 -0.04484135 -0.04152358
0003c0 65 0b 87 bd fe fa 61 bd c9 40 ba bd 51 f2 b3 bd
       -0.0659397 -0.055171005 -0.09094388 -0.087864526
0003d0 a3 95 d8 3c 54 23 a0 bd fb 1d 18 bd 47 d6 17 bd
       0.02643854 -0.07819238 -0.037137967 -0.037069585
0003e0 b0 9f 1e bd 16 f5 96 ba fc 00 e3 3a ae ae 03 ba
       -0.03872651 -0.0011517133 0.0017319019 -0.0005023283
0003f0 58 df bc 3b ab e2 5a 3d 03 4a e4 bd 0b 6d 98 bd
       0.0057639293 0.053438824 -0.11146929 -0.07442673

conv2.0.bias f4 [16]
000000 43 d3 4c bd 78 de 66 3c e6 37 26 bc fc 12 e6 38
       -0.050006162 0.014091127 -0.010145163 0.00010970791
000010 1c 9e 85 bd ac 3a f9 bd 11 6f d3 bc 64 42 c5 3d
       -0.065242976 -0.12169394 -0.025809797 0.09631804
000020 fc e2 91 3b b8 0e 73 bd bd fd 6d 3b 53 26 94 bd
       0.0044521075 -0.05934021 0.003631457 -0.07233872
000030 24 2e 8b bc 9c af d8 bd 3e 33 88 3d 27 67 43 3c
       -0.016989775 -0.1058037 0.06650399 0.011926449

conv3.0.weight f4 [8, 16, 1, 1]
000000 e4 53 b9 3e 0a e6 98 bd 7d 1c 86 3e ff a5 2b 3e
       0.36196816 -0.074657515 0.2619361 0.16762541
000010 fc 3e a1 bc a9 d3 9c 3e ba 1a a0 3e 42 93 9b be
       -0.019683354 0.30630234 0.3127039 -0.30385786
000020 8f f3 7d 3e aa b7 66 3e 7a 2d c8 3e c7 58 0a be
       0.24799941 0.22531 0.39097196 -0.13510428
000030 46 db 94 3e 25 c6 c1 3e e5 7e ca 3e 55 b5 03 bd
       0.29073542 0.37846485 0.39549938 -0.032155354
000040 81 96 0c 3e 6e fb 00 be af 80 14 3e 0e b5 20 be
       0.13729288 -0.12595913 0.14502214 -0.15694067
000050 18 d4 04 3c 01 6a aa 3d 0c 1d 50 3e 60 44 77 be
       0.008107208 0.08321 0.2032358 -0.24147177
000060 d6 e1 bb bd 2b 90 64 3e 8a 48 85 3b 33 0f 34 3e
       -0.09173934 0.2232062 0.004067485 0.17583923
000070 42 2a 70 be 15 db 70 3e d6 ea 04 3d 4f 29 33 3d
       -0.2345362 0.23521073 0.03245052 0.043740567
000080 44 18 c1 bd 5d fa 2b 3e 08 7d 85 3e c9 6c 75 3e
       -0.094284564 0.16794725 0.26071954 0.2396728
000090 db 92 62 be a6 cd 29 3d 27 76 de 3c b0 20 69 be
       -0.22126333 0.041455887 0.027155949 -0.22766376
0000a0 40 91 5e be 82 fe 1f be 79 a9 9c bc ed 02 87 bd
       -0.21735096 -0.15624431 -0.01912378 -0.06592355
0000b0 ca 3e f6 3d e6 a0 44 bd 42 30 21 3e 69 92 50 be
       0.12023695 -0.048005007 0.15741065 -0.20368351
0000c0 58 f6 e5 bd 53 3d 52 3e 05 55 43 3e e6 fd 09 3e
       -0.11228627 0.20531206 0.19075401 0.13475761
0000d0 e2 b4 2d 3e a7 7b cc bd cb 76 5b 3e 66 ea 45 3c
       0.16963533 -0.09984522 0.21432035 0.012079811
0000e0 f5 79 c7 3d a7 90 14 3e 37 d3 a2 bc a7 1d 27 3e
       0.09740058 0.14508305 -0.019876106 0.16319905
0000f0 a4 2e 1f 3d 79 d0 9c bd 5b 9c fa 3d d5 4d 1b be
       0.03886284 -0.076569505 0.12236854 -0.1516641
000100 a3 08 15 be 53 3e 4e 3e 87 ff 78 3e 7b 8e 13 3e
       -0.14554076 0.20140962 0.24316226 0.1440982
000110 44 1d 49 3b 52 83 49 3e dc 62 b3 3d f0 09 ad bd
       0.003068761 0.19679001 0.0875909 -0.08449161
000120 24 3b e3 bd 79 57 2a 3e 70 e6 d6 3d 25 66 1b 3e
       -0.110952646 0.1663493 0.10493171 0.15175684
000130 56 8d 45 3e cb 0c af 3c 22 b7 6e bc d6 90 4d 3e
       0.19292197 0.021368405 -0.014570029 0.20074782
000140 3e a0 bd bd 1d 51 f5 bc 8b 00 aa be d4 9a 36 be
       -0.092590794 -0.029945904 -0.3320354 -0.178325
000150 27 e6 68 3e b7 aa 3e be 42 6c 9b be 9c e1 47 3e
       0.22744046 -0.1861981 -0.30356032 0.19519657
000160 7f 9b 95 be 51 dd 4a bd cd 1c da 3d 83 bf ce 3d
       -0.29220197 -0.04952747 0.106500246 0.10095122
000170 7e 06 1b be f6 c3 0e 3e 77 54 fe bd bf e2 f2 39
       -0.15139195 0.1394194 -0.12418454 0.00046326776
000180 28 3a 3e 3e c7 9d ff bd 0c b7 26 bd 22 e6 f5 bd
       0.18576872 -0.124812655 -0.04070191 -0.12006785
000190 33 f7 5a 3e 96 f0 80 be 7d 80 e7 bd 89 b4 ce bb
       0.21383362 -0.25183553 -0.11303804 -0.0063081426
0001a0 ff f9 1a 3e 9d d5 07 3e 71 02 b1 bd dc 3e 09 3e
       0.15134428 0.13265081 -0.08643044 0.13402885
0001b0 c9 f2 42 bc 56 82 1e be e3 6a 69 bd cc 7d 5e 3e
       -0.011898705 -0.15479407 -0.0569867 0.21727675
0001c0 b9 08 71 bd 72 5f cf 3e 16 5b 0e bc c5 b6 a3 3c
       -0.05884621 0.40502506 -0.008688709 0.019984612
0001d0 f5 99 9e bd a7 f1 e7 3d a7 15 ff 3c 85 9e 1a be
       -0.07744209 0.113253884 0.031138254 -0.15099533
0001e0 2c a5 1b 3d 6f 21 92 3e fa 80 e4 bd d3 3d ae bd
       0.037999317 0.28541133 -0.11157413 -0.08507886
0001f0 66 3d 86 bd e7 e7 91 3e 72 0c f3 bd 8b 32 86 3d
       -0.065546796 0.2849724 -0.11867608 0.06552609

conv3.0.bias f4 [8]
000000 5d 3e 7c be e0 95 60 3e cd 73 37 3d d0 34 2b 3e
       -0.24633165 0.21932173 0.04478817 0.16719365
000010 a4 de b0 3d 4f 1d 10 3d eb c2 04 3e ed 10 52 be
       0.08636215 0.0351842 0.1296498 -0.20514269
